…
   "execution_count": 15,
   "id": "b2733d27",
   "metadata": {},
   "outputs": [
    {
     "name": "stdout",
     "output_type": "stream",
     "text": [
      "Model: \"model_1\"\n",
      "_________________________________________________________________\n",
      "Layer (type)                 Output Shape              Param #   \n",
      "=================================================================\n",
      "input_2 (InputLayer)         [(None, 100)]             0         \n",
      "_________________________________________________________________\n",
      "dense_1 (Dense)              (None, 2048)              206848    \n",
      "_________________________________________________________________\n",
      "batch_normalization_8 (Batch (None, 2048)              8192      \n",
      "_________________________________________________________________\n",
      "reshape (Reshape)            (None, 4, 4, 128)         0         \n",
      "_________________________________________________________________\n",
      "conv2d_transpose (Conv2DTran (None, 8, 8, 64)          204864    \n",
      "_________________________________________________________________\n",
      "batch_normalization_9 (Batch (None, 8, 8, 64)          256       \n",
      "_________________________________________________________________\n",
      "leaky_re_lu_4 (LeakyReLU)    (None, 8, 8, 64)          0         \n",
      "_________________________________________________________________\n",
      "conv2d_transpose_1 (Conv2DTr (None, 16, 16, 32)        51232     \n",
      "_________________________________________________________________\n",
      "batch_normalization_10 (Batc (None, 16, 16, 32)        128       \n",
      "_________________________________________________________________\n",
      "leaky_re_lu_5 (LeakyReLU)    (None, 16, 16, 32)        0         \n",
      "_________________________________________________________________\n",
      "conv2d_transpose_2 (Conv2DTr (None, 32, 32, 16)        12816     \n",
      "_________________________________________________________________\n",
      "batch_normalization_11 (Batc (None, 32, 32, 16)        64        \n",
      "_________________________________________________________________\n",
      "leaky_re_lu_6 (LeakyReLU)    (None, 32, 32, 16)        0         \n",
      "_________________________________________________________________\n",
      "conv2d_transpose_3 (Conv2DTr (None, 64, 64, 16)        6416      \n",
      "_________________________________________________________________\n",
      "batch_normalization_12 (Batc (None, 64, 64, 16)        64        \n",
      "_________________________________________________________________\n",
      "leaky_re_lu_7 (LeakyReLU)    (None, 64, 64, 16)        0         \n",
      "_________________________________________________________________\n",
      "conv2d_8 (Conv2D)            (None, 64, 64, 3)         1203      \n",
      "=================================================================\n",
      "Total params: 492,083\n",
      "Trainable params: 487,731\n",
      "Non-trainable params: 4,352\n",
      "_________________________________________________________________\n",
      "Model: \"model\"\n",
      "_________________________________________________________________\n",
      "Layer (type)                 Output Shape              Param #   \n",
      "=================================================================\n",
      "input_1 (InputLayer)         [(None, 64, 64, 3)]       0         \n",
      "_________________________________________________________________\n",
      "conv2d (Conv2D)              (None, 64, 64, 16)        1216      \n",
      "_________________________________________________________________\n",
      "batch_normalization (BatchNo (None, 64, 64, 16)        64        \n",
      "_________________________________________________________________\n",
      "conv2d_1 (Conv2D)            (None, 32, 32, 16)        6416      \n",
      "_________________________________________________________________\n",
      "batch_normalization_1 (Batch (None, 32, 32, 16)        64        \n",
      "_________________________________________________________________\n",
      "leaky_re_lu (LeakyReLU)      (None, 32, 32, 16)        0         \n",
      "_________________________________________________________________\n",
      "conv2d_2 (Conv2D)            (None, 32, 32, 32)        12832     \n",
      "_________________________________________________________________\n",
      "batch_normalization_2 (Batch (None, 32, 32, 32)        128       \n",
      "_________________________________________________________________\n",
      "conv2d_3 (Conv2D)            (None, 16, 16, 32)        25632     \n",
      "_________________________________________________________________\n",
      "batch_normalization_3 (Batch (None, 16, 16, 32)        128       \n",
      "_________________________________________________________________\n",
      "leaky_re_lu_1 (LeakyReLU)    (None, 16, 16, 32)        0         \n",
      "_________________________________________________________________\n",
      "conv2d_4 (Conv2D)            (None, 16, 16, 64)        51264     \n",
      "_________________________________________________________________\n",
      "batch_normalization_4 (Batch (None, 16, 16, 64)        256       \n",
      "_________________________________________________________________\n",
      "conv2d_5 (Conv2D)            (None, 8, 8, 64)          102464    \n",
      "_________________________________________________________________\n",
      "batch_normalization_5 (Batch (None, 8, 8, 64)          256       \n",
      "_________________________________________________________________\n",
      "leaky_re_lu_2 (LeakyReLU)    (None, 8, 8, 64)          0         \n",
      "_________________________________________________________________\n",
      "conv2d_6 (Conv2D)            (None, 8, 8, 128)         204928    \n",
      "_________________________________________________________________\n",
      "batch_normalization_6 (Batch (None, 8, 8, 128)         512       \n",
      "_________________________________________________________________\n",
      "conv2d_7 (Conv2D)            (None, 4, 4, 128)         409728    \n",
      "_________________________________________________________________\n",
      "batch_normalization_7 (Batch (None, 4, 4, 128)         512       \n",
      "_________________________________________________________________\n",
      "leaky_re_lu_3 (LeakyReLU)    (None, 4, 4, 128)         0         \n",
      "_________________________________________________________________\n",
      "global_average_pooling2d (Gl (None, 128)               0         \n",
      "_________________________________________________________________\n",
      "dense (Dense)                (None, 1)                 129       \n",
      "=================================================================\n",
      "Total params: 816,529\n",
      "Trainable params: 0\n",
      "Non-trainable params: 816,529\n",
      "_________________________________________________________________\n",
      "Model: \"sequential\"\n",
      "_________________________________________________________________\n",
      "Layer (type)                 Output Shape              Param #   \n",
      "=================================================================\n",
      "model_1 (Functional)         (None, 64, 64, 3)         492083    \n",
      "_________________________________________________________________\n",
      "model (Functional)           (None, 1)                 816529    \n",
      "=================================================================\n",
      "Total params: 1,308,612\n",
      "Trainable params: 487,731\n",
      "Non-trainable params: 820,881\n",
      "_________________________________________________________________\n"
     ]
    }
   ],
   "source": [
    "def construct_models(verbose=False):\n",
    "    ### discriminator\n",
    "    discriminator = build_discriminator(NET_CAPACITY, SPATIAL_DIM, FILTER_SIZE)\n",
…
